params.pth (torch, 183971 bytes, 3 tensors)

line.weight f4 [89, 256]
00000000: 5bba 523b 4a71 3abe ae3b 273e 1e63 463b
00000010: ce79 a73d 1e88 19bc ffea 0ebe a2bb 28bd
00000020: 6385 94bd a362 923e 9a14 03be 8b7c 5c3e
00000030: 6f8d 45be 9651 06be c656 363e ed32 8a3c
00000040: d776 8a3e 531f 0bbe bb66 d1bd 58f0 5b3d
00000050: e28a fe3d 2b69 e8bc 3788 2dbe 98f6 983d
00000060: 52b8 243e 7f29 24bd eda7 3cbe 4a3c b03c
00000070: 31c2 113d 90d7 d43d 41d0 9bbd 4a8c 153d
00000080: 42a0 f1bd 6663 933d 67c2 c63d 634d 093b
00000090: 8a4d 943d 928e c2bc cd4b 593d 5552 2fbd
000000a0: 3650 e53d 8b0d c73d 9a25 973d 1eb9 abbd
000000b0: c78d aa3d b6e8 1d3e d090 26be 3b40 10be
000000c0: 4094 bfbc 80d0 95bd 0921 09be 8a28 c73d
000000d0: e60c 7dba e47d 06bc 7a80 79bc 836f 3b3d
000000e0: 37de 9c3e ae9a b13d 7579 1abc bcec ac3d
000000f0: 8514 0ebe 1bb2 d1bd 8575 eebc e8db 553d
00000100: 07f6 283e 7898 ed3d 180e 0fbd 267b 49be
00000110: 4f87 203e 2a1f 14bd 6bad 86bd fe5f f53d
00000120: 6178 c0bd 7084 273e bbf7 bf3d 106e 80bd
00000130: 9f4f b9bd 40f7 ef3d 02f2 f5bd a900 87bd
00000140: 3aee 753e ff84 983d 4bb6 7ebd ca01 5f3e
00000150: d8cc fabc fbe2 34be daaf 50bd ba34 43be
00000160: ad5e d2bd f578 19be 5d0e 53bd 8213 3f3e
00000170: 27a0 0cbe 40c9 d4bd 120a 64be a211 983e
00000180: 8e48 93bd 45ff 023e a5d3 4f3e 6627 2c3e
00000190: c08d aabd d56a 73bd cde9 aa38 1dac f1bd
000001a0: 928a c53d c406 8dbe 90ff 5cbd 078a 34be
000001b0: d20f bdbd 822f adbd 2662 e73d 61fd a8bc
000001c0: aeb8 ecbd ed55 5e3d 2e0b 073d 12e6 84bd
000001d0: 552a 363c 12db c5bd 7e3d aebd 234f 663b
000001e0: 1d12 44bc 731a a8bc 9ea1 28be 8b5e 90be
000001f0: adec 9d38 f7fc 21be 1d2a 89bc 0677 0abe
00000200: ea9d bebd 598e 38be ce96 06be ee63 1f3e
00000210: 766d 52be d32d fbbd fbd4 97bc a559 c1bc
00000220: 3bb0 74be 9601 8a3e cae9 6fbd 2d52 fb3d
00000230: f1a7 0ebe 108f 96bd a76f 8abd c5b8 ebbd
00000240: 23e6 dabc f2d8 2abd 0e73 083e ea8f 8cbe
00000250: e0aa 24be 8980 3fbe e640 4bbe 567f ebbd
00000260: f9c9 08be 8e03 0d3e b8e5 a4bd c4ae 40bd
00000270: ba70 8b3c 8ead 10be 48ee b3bd 046a 83bd
00000280: 36f1 2c3e 8207 613d 740a 8e3e 2b43 183e
00000290: 78d3 7ebd 6a56 b9bd 3bf6 eb3b aa3b 053e
000002a0: 06cd 793b 3e17 22bd f691 b6be 7553 863e
000002b0: 7254 bbbd c279 1d3c 8024 883d d8a4 d43d
000002c0: b7d5 3a3d edb4 e9bd 6a50 c3bd 15cd 90be
000002d0: fe6e 3f3d 82be 293d 29c8 8c3d 2892 623e
000002e0: 90f8 d2bd d8b3 9c3d 989b 19bc 1f37 22be
000002f0: 6e05 063d bd76 45bd 625d 9d3d 8bb2 2a3e
00000300: d0f4 8cbd b59a 243e bf57 1bbd 4281 243c
00000310: 898c 9e3d ad32 3dbe 2003 533e da4b 8d3d
00000320: e528 61bd b469 1dbe 2e08 df3d ddde e2bd
00000330: 8d9a d83d 3013 d4bd 159d 6a3e 5af6 69be
00000340: 8607 f13d 6e25 19be 7b73 183b e437 403e
00000350: 3a8f 823c dbf5 9e3d f09d c7bc 8cfe 0bbe
00000360: 1d87 7bbe 8030 2fbe 5499 c9bd 935d 0f3e
00000370: cc4d 343e dbad 21be ebd0 423d dba7 c7bd
00000380: f5e2 e23c dda9 2a3e a449 063e 0948 47be
00000390: bb2f e23d 055f 8fbd 958c 273e 9e30 b1bd
000003a0: 9095 d7bc 9bd1 b73d da8f d0bd 3bad 313e
000003b0: 31d9 48be 6cc0 3bbe 7cd9 a7bd e600 0b3d
000003c0: e2f6 1b3e a55c 753e b8ce 183e c43f 293e
000003d0: e1fe 21be 4e23 333d 3825 8dbd 3daf 8fbd
000003e0: c379 283d ab6f 4c3d 4aaf 203e f335 61bd
000003f0: 7390 c8bd 9184 b53c bec7 35be 0b56 5dbd
0.0032154534 -0.18207279 0.1633136 0.003027148 0.08177529 -0.009370832 -0.13956831 -0.041194566
-0.07252004 0.2859088 -0.12800828 0.21531884 -0.19292234 -0.1311706 0.17806539 0.016869986
0.27043793 -0.13586168 -0.102246724 0.053696007 0.124288335 -0.02837046 -0.16946493 0.07468909
0.16085938 -0.040078636 -0.18423434 0.021513123 0.035585586 0.10392678 -0.07608081 0.036510743
-0.11798145 0.07196693 0.09705048 0.0020950667 0.07241352 -0.023749623 0.053050805 -0.042803127
0.1119694 0.0971938 0.07380219 -0.08384918 0.08327823 0.15420803 -0.16266179 -0.14087002
-0.02338612 -0.07315159 -0.13391508 0.09724529 -0.0009653106 -0.008208726 -0.015228385 0.045760643
0.30638286 0.08672081 -0.009428372 0.08443591 -0.13875015 -0.10239049 -0.029108772 0.052211672
0.16500102 0.11601347 -0.03492555 -0.19675884 0.15676616 -0.036162533 -0.065760456 0.119812
-0.093979605 0.16359115 0.09373423 -0.06270993 -0.0904839 0.11717081 -0.1200905 -0.06591923
0.24016657 0.07447242 -0.062185567 0.21778026 -0.030615255 -0.17664711 -0.050948955 -0.19063082
-0.10271964 -0.14987548 -0.05152737 0.18659785 -0.13732968 -0.10389948 -0.22269467 0.29700953
-0.07191573 0.1279269 0.2029558 0.16811904 -0.08327818 -0.059428055 8.1497805e-05 -0.11800406
0.09645571 -0.27544224 -0.05395466 -0.17630778 -0.09231533 -0.08456327 0.11298017 -0.020628633
-0.11558662 0.054281164 0.032969646 -0.06489195 0.011118491 -0.09660925 -0.085078225 0.0035142384
-0.011967209 -0.020520424 -0.16467902 -0.2819713 7.530428e-05 -0.15819155 -0.016743714 -0.13521966
-0.093074635 -0.18023051 -0.13143465 0.15565464 -0.20549569 -0.122646 -0.018534174 -0.023602316
-0.23895352 0.26954335 -0.058572568 0.12271533 -0.13931252 -0.07351506 -0.06759577 -0.11509851
-0.026721066 -0.0417108 0.1332514 -0.27453548 -0.16080809 -0.18701376 -0.19848976 -0.11498897
-0.13358296 0.13770887 -0.08051628 -0.04704167 0.017021526 -0.14128706 -0.08785683 -0.06416705
0.1688889 0.0549388 0.2774235 0.14869373 -0.06221339 -0.09049685 0.007200984 0.13011041
0.0038116588 -0.039572947 -0.35658234 0.26235548 -0.09146966 0.009611549 0.06647587 0.10383004
0.04561397 -0.11411462 -0.09536822 -0.28281465 0.04673671 0.041441448 0.06874115 0.22126067
-0.10301316 0.0765149 -0.009375475 -0.1584134 0.032720022 -0.04820894 0.07683827 0.16669671
-0.06882632 0.16074641 -0.037925478 0.010040583 0.07741649 -0.18476363 0.20606661 0.06899233
-0.05497064 -0.15372354 0.10890232 -0.11077664 0.10576353 -0.10355222 0.22911485 -0.22847882
0.11769013 -0.14955685 0.002326219 0.1877132 0.015937436 0.07761737 -0.024367303 -0.1367132
-0.2456326 -0.17108345 -0.09843698 0.1400054 0.17607802 -0.15788977 0.04756252 -0.09748813
0.027696112 0.1666636 0.13114029 -0.19461073 0.1104426 -0.070005454 0.16362222 -0.08651851
-0.026316434 0.08975526 -0.101836875 0.17351238 -0.19614102 -0.18335122 -0.08195779 0.033936404
0.15230897 0.23961122 0.14922607 0.16528231 -0.15819885 0.04373484 -0.068918645 -0.07015846
0.041131746 0.049911182 0.15691867 -0.05498309 -0.097931765 0.02215794 -0.17751977 -0.054037135

line.bias f4 [89]
00000000: 11d7 9c3e 12b7 abbe aa2e b3be 2b9b 603d
00000010: 9296 3abe 3263 a43d 2b45 a43e 82c1 f4bd
00000020: ae9a 33bd 8b72 2b3c 5b3a 703d eb0b 5abd
00000030: 32a4 703d 362c 8f3d 9e6d a03e 5240 03be
00000040: fbd4 b63b b68d b7bc 5112 a73c 6b0c 993b
00000050: 4a57 ca3c 0677 82bd 068f 8bbe 09da 06bf
00000060: db3e b4bd 761c 9ebe e25d f6be f72c 08bf
00000070: 2d8d d6be f6ac 463d 4592 65be 729e 05be
00000080: 5255 68be bec1 8bbe a549 a1bd 8658 a0bd
00000090: 6bb2 22be cdf5 aabd ed7a 3ebe 52c5 60bd
000000a0: 4a05 f6bd 3da4 8ebe c90d 1bbe 5ce2 0bbe
000000b0: c79b b5be 9ebe 6dbc 8a78 09be bdc9 31be
000000c0: 43f3 62bc b159 87be f296 383c 5807 9cbe
000000d0: f885 fbbd b637 abbe c327 01be 9ac2 653c
000000e0: 9517 7cbe fad9 b5be f047 03be 684d 47be
000000f0: ec9e aebc 1038 54be 8da8 d9bd 6300 97be
00000100: 8bfd cdbd c96c 8dbe 3b41 0ebf c866 f0be
00000110: 2efe 6fbe 97ea 98be 2c3c 9abe 9e7e e8be
00000120: 1344 10bf cd57 e3be ceab 03bf 8275 13bf
00000130: cea0 c7be 9ff3 00bf d3ba debe 4822 e4be
00000140: 90c2 fdbe 2356 06bf f3a5 cabe 1dec f6be
00000150: 3ed5 e6be 1b93 eabe f0d1 efbe 8318 ecbe
00000160: 18db eabe
0.30632833 -0.3353811 -0.3499654 0.05483548 -0.182215 0.080267325 0.3208402 -0.11950971
-0.043848686 0.010464321 0.058649402 -0.053234022 0.05875034 0.069908544 0.3133363 -0.12817505
0.0055795885 -0.02240644 0.020394476 0.00467067 0.024699826 -0.06370358 -0.27257556 -0.52676445
-0.08801051 -0.3088109 -0.48118502 -0.5319361 -0.41904584 0.048504792 -0.22419079 -0.13048723
-0.22688797 -0.2729625 -0.07875375 -0.078293845 -0.15888374 -0.08347664 -0.1860158 -0.05487568
-0.120127276 -0.2785968 -0.15141977 -0.13660568 -0.3547041 -0.014510779 -0.13424888 -0.17362113
-0.013851943 -0.26435617 0.011266457 -0.30474353 -0.12281412 -0.33440942 -0.12612824 0.014023447
-0.24618371 -0.35517865 -0.1282041 -0.19463122 -0.021316014 -0.20724511 -0.10627852 -0.29492483
-0.10058125 -0.2762206 -0.55568284 -0.46953416 -0.23436806 -0.29866478 -0.30124032 -0.454091
-0.56353873 -0.44402924 -0.5143403 -0.5760118 -0.38989872 -0.50371736 -0.4350191 -0.44557405
-0.49562502 -0.52475184 -0.39579734 -0.48227015 -0.45084566 -0.45815358 -0.46839857 -0.4611245
-0.4587028

embeddings.weight f4 [89, 256]
00000000: 954d 9d3e 5a92 3c3e f692 49bf 0edc 463f
00000010: 3e39 b53e 0f1c 943e ad80 c1bf 1b1e 87bf
00000020: 62ce 84bf f805 5abd ee3d 50bf 6a91 073e
00000030: e594 a53d 0d22 d0be 017a f73f 2407 b33f
00000040: c1ef 4e3f 5725 013e 3c59 f93e d272 c33f
00000050: 586a 0740 7097 60be bbe8 38bf e9dd 13bf
00000060: df8b b03e 1b48 b83d de03 c3be b1c6 2b3f
00000070: f60a 3c40 49d4 3d3f 2c23 4abe 77aa 083e
00000080: a2d9 b3bf 6cb6 67bf b6a1 873f d303 8fbe
00000090: 743e 36bf 2399 cc3e b8c2 85bf bc1d 203f
000000a0: a40a 713f 92d3 51bd 86d6 5c3e fbc7 42bf
000000b0: 89c2 873e 0798 ba3f 01a5 92bf f5f2 a43e
000000c0: 4f6c 84bf d77a e53d 5fe0 d7bf dfcb 453e
000000d0: 090d c73d 4e30 c13e d34e 80bf 3c0e cb3f
000000e0: fc5f b33f e9aa 0d3f dfb4 9cbe 1b68 32bf
000000f0: de34 753f 8f6a 14bf b834 d8be 2d79 2e3f
00000100: e59b 3e3f 3163 593f 6f1b 2bbf caa8 54bf
00000110: 6ea3 a23f c346 68bf 55b9 22bf 1b18 083f
00000120: 17df e0bf 1426 5c3f f730 9a3f 7cdf c33e
00000130: de98 86bf 9e72 613f 0a05 0ac0 f527 6fbf
00000140: 0d2e d93f cb8d 3abf b02d 1ebf e179 da3f
00000150: d563 0a3f a6d2 9ebd de88 79bf fcc5 f9bc
00000160: 7b2a 643d dac5 a2be 0360 28bd 2e78 c5be
00000170: d8ca 01c0 c22e e33f eec9 d3be 64fa 823e
00000180: de8b 4fbf c454 793f fcda 023f 57c3 3b3f
00000190: 90e8 113f 8f43 3bbf 9da5 76bf fcb1 dabf
000001a0: 54f4 1b3f 720d 8ebf 9e79 6940 890b e2bf
000001b0: c0eb 30bf ea03 eb3c 88d4 9ebe cca7 72bf
000001c0: e809 0c3f af10 aebf 3200 bebd 4b88 4c3f
000001d0: 47a1 ad3e 4dd5 de3f 220c 033d 7f56 c4bf
000001e0: b2d9 afbe 1f02 1dbe d892 483e a720 9abf
000001f0: 25c9 263f df41 90bf 7d14 b4be 88ba 02bf
00000200: 2156 aebf f819 45bf 8384 033e 915a 5ebd
00000210: cc2c 863f fa1e fbbf 6641 81be d8ad 30bd
00000220: 664b 87bf d564 b9bf 1af3 5ebe 9702 a4bf
00000230: 3145 82bf 48df 973e 8bbc 1e3f aa83 f1bf
00000240: 5b39 863e b3f1 a73f 6712 4d3f d61d 893e
00000250: ebd9 73bf c257 aebe 3b20 343c 8658 b1bf
00000260: 095c 18be 7660 923f 83f6 88bd e571 93bf
00000270: f294 8bbf 92a7 3bbd ab59 59bf d8cf 003f
00000280: 22e0 c0be 26d3 5b3e 3ce5 6c3f 2cf0 ce3f
00000290: a132 933f ea9d c8bf 1c94 e93f f843 19bf
000002a0: 0803 fdbf c8fd b6be c9c1 5cbf aef0 98bf
000002b0: 6ccb c4bd 6657 fcbe ceb9 363f c95b 033f
000002c0: 2ace 443e 6141 8dbe 4edc b0be c7b7 6ebe
000002d0: 7db6 03be 9a05 9a3e 1ec9 243f 21e4 1ac0
000002e0: f63c dfbd e3b1 383f e04d df3f 9296 84bf
000002f0: 5b9f 5a40 a2e1 12be a3c9 abbf 43ea 223f
00000300: 802e b83f 3ee4 90bf fb97 d93f dc15 5a3f
00000310: 52c8 a93f 739c febe 1ab1 f4bd fcc6 3d3d
00000320: 7ba1 12bf 0e5f b1bf 2a8b 36be 00eb 9fbf
00000330: 5205 063f e4f8 07c0 fc77 6b3f efc7 a7bd
00000340: daa7 1e3e 3676 223f 1e39 2fbf efdf f03f
00000350: 5829 a0bb b3d2 c53f 1ea0 603d c045 95bf
00000360: 8089 3abe b596 e4bf 134d acbe f5c7 0740
00000370: 279b 73bf 8752 e9be d756 d9be fce7 7abf
00000380: 8d49 a8bd 667b 303e e292 36bf 00a5 c1be
00000390: 27f4 a83e 5c8f 923e 4d40 9b3f 7f41 49bf
000003a0: e249 54bf 319f 73bf 4d5f 54bf 76f7 30be
000003b0: f7ee 03c0 ea4d 53bf 03eb 23bf 6f4c 35bf
000003c0: b4d2 4a3f ad74 80bf 93b0 c7be 7c6c 22be
000003d0: f269 2f3d 6b4a 0dbe e058 af3c ef7c 17be
000003e0: 8b28 8cbf 1c7a d9be 7dc8 cc3d 30fc eb3f
000003f0: 910c 96bd 5215 983e b2e7 773e d0ed 913d
0.30723253 0.18415204 -0.7873987 0.77679527 0.35395235 0.28927657 -1.5117394 -1.0556062
-1.0375483 -0.05322835 -0.813445 0.13239065 0.0808504 -0.4065098 1.9334108 1.3986554
0.80834585 0.126119 0.48700893 1.5269415 2.1158657 -0.21932769 -0.7223012 -0.57760483
0.34481713 0.08998128 -0.38088888 0.67100054 2.938169 0.74152046 -0.1973998 0.13346277
-1.4050791 -0.9051273 1.0596225 -0.27932605 -0.71189046 0.39960584 -1.0450048 0.6254537
0.9415686 -0.05122716 0.21566209 -0.76086396 0.26515606 1.4577645 -1.1456605 0.32216612
-1.0345553 0.112050705 -1.6865348 0.19316052 0.09719283 0.37732166 -1.0024055 1.5863719
1.4013667 0.55338913 -0.30606744 -0.696901 0.95783794 -0.57975096 -0.4222772 0.6815365
0.74456626 0.8491698 -0.66838735 -0.8307005 1.2706125 -0.90732974 -0.63564044 0.5316178
-1.7568082 0.859956 1.2046193 0.38256443 -1.0515401 0.88065517 -2.1565576 -0.93420345
1.6967179 -0.7287261 -0.61788464 1.7068444 0.5405858 -0.07755022 -0.9747447 -0.030489914
0.055704575 -0.31791574 -0.04110719 -0.38568252 -2.0280056 1.7748644 -0.41364998 0.25581658
-0.81072795 0.9739497 0.51115394 0.7334494 0.5699549 -0.7314996 -0.96346456 -1.7085567
0.6091969 -1.1097853 3.648048 -1.765977 -0.69109726 0.02868839 -0.31021523 -0.9478729
0.54702616 -1.3598841 -0.09277381 0.79895467 0.33912107 1.7408844 0.031993993 -1.5338897
-0.34345776 -0.1533284 0.19587266 -1.2041215 0.6515067 -1.1270102 -0.3517188 -0.51065874
-1.3620034 -0.7699275 0.12843518 -0.05428559 1.0482421 -1.9618828 -0.25245208 -0.04313454
-1.0569885 -1.4483896 -0.21772423 -1.281329 -1.0177366 0.29662538 0.62006444 -1.8868306
0.26215634 1.3120636 0.80106205 0.26780576 -0.9525439 -0.3405133 0.0109940125 -1.385514
-0.14878859 1.1435688 -0.066876434 -1.1519133 -1.090483 -0.045814104 -0.8490245 0.50317144
-0.37671 0.21467265 0.92537284 1.6167045 1.1499826 -1.5673192 1.8248324 -0.5986934
-1.976655 -0.35740495 -0.8623319 -1.194845 -0.09609112 -0.4928543 0.71377265 0.5131193
0.1921927 -0.27588943 -0.3454308 -0.23312293 -0.12862583 0.300824 0.6436938 -2.420174
-0.10900299 0.72146434 1.744564 -1.035845 3.4159763 -0.14343885 -1.342091 0.63638705
1.4389191 -1.1319654 1.6999506 0.85189605 1.3264258 -0.49728736 -0.11947842 0.046332344
-0.5727765 -1.3857133 -0.17826524 -1.2493591 0.5235187 -2.124566 0.91979957 -0.08192431
0.15493718 0.63461626 -0.6844653 1.8818339 -0.004887741 1.5454925 0.0548402 -1.1661911
-0.18216515 -1.7858492 -0.33652553 2.1215794 -0.9515862 -0.45570776 -0.42449066 -0.9801023
-0.08217154 0.17234573 -0.71317875 -0.37821198 0.32998773 0.28625 1.2128998 -0.78615564
-0.82925236 -0.9516478 -0.8295792 -0.17281899 -2.0614603 -0.8254076 -0.64030474 -0.70819753
0.7922776 -1.0035607 -0.39001903 -0.15861696 0.042825647 -0.1379792 0.021404684 -0.14793752
-1.0949873 -0.42475975 0.099991776 1.8436337 -0.073266156 0.29703766 0.24209478 0.07125437
